[2022-06-14 13:31:47,712] Namespace(auto_augment=False, batch_size=1024, cutout=False, data_dir='/dataset/public/ImageNetOrigin/', epoch=480, lr=0.6, nesterov=True, reduction=1.375, results_dir='./results/', resume=None)
[2022-06-14 13:31:47,713] ==> Preparing data..
[2022-06-14 13:31:56,749] Training / Testing data number: 50000 / 1281167
[2022-06-14 13:31:56,750] Using path: ./results/14133147/
[2022-06-14 13:31:56,750] ==> Building model..
[2022-06-14 13:32:02,766] DataParallel(
  (module): FENet(
    (conv1): Conv2d(3, 22, kernel_size=(3, 3), stride=(2, 2), padding=(1, 1), bias=False)
    (bn1): BatchNorm2d(22, eps=1e-05, momentum=0.1, affine=True, track_running_stats=True)
    (ibssl): IBSSL(
      (conv1): Conv2d(22, 88, kernel_size=(1, 1), stride=(1, 1), bias=False)
      (bn1): BatchNorm2d(88, eps=1e-05, momentum=0.1, affine=True, track_running_stats=True)
      (shift2): SSL2d()
      (conv2): Conv2d(88, 22, kernel_size=(1, 1), stride=(1, 1), bias=False)
      (bn2): BatchNorm2d(22, eps=1e-05, momentum=0.1, affine=True, track_running_stats=True)
    )
    (ibpool): IBPool(
      (conv1): Conv2d(22, 220, kernel_size=(1, 1), stride=(1, 1), bias=False)
      (bn1): BatchNorm2d(220, eps=1e-05, momentum=0.1, affine=True, track_running_stats=True)
      (shift2): AvgPool2d(kernel_size=2, stride=2, padding=0)
      (conv2): Conv2d(220, 44, kernel_size=(1, 1), stride=(1, 1), bias=False)
      (bn2): BatchNorm2d(44, eps=1e-05, momentum=0.1, affine=True, track_running_stats=True)
    )
    (feblock1): FEBlock3n2s(
      (resibssl_1): ResIBSSL(
        (conv1): Conv2d(11, 66, kernel_size=(1, 1), stride=(1, 1), bias=False)
        (bn1): BatchNorm2d(66, eps=1e-05, momentum=0.1, affine=True, track_running_stats=True)
        (shift2): SSL2d()
        (conv2): Conv2d(66, 11, kernel_size=(1, 1), stride=(1, 1), bias=False)
        (bn2): BatchNorm2d(11, eps=1e-05, momentum=0.1, affine=True, track_running_stats=True)
      )
      (resibssl_2): ResIBSSL(
        (conv1): Conv2d(22, 132, kernel_size=(1, 1), stride=(1, 1), bias=False)
        (bn1): BatchNorm2d(132, eps=1e-05, momentum=0.1, affine=True, track_running_stats=True)
        (shift2): SSL2d()
        (conv2): Conv2d(132, 22, kernel_size=(1, 1), stride=(1, 1), bias=False)
        (bn2): BatchNorm2d(22, eps=1e-05, momentum=0.1, affine=True, track_running_stats=True)
      )
      (ibpool): IBPool(
        (conv1): Conv2d(44, 528, kernel_size=(1, 1), stride=(1, 1), bias=False)
        (bn1): BatchNorm2d(528, eps=1e-05, momentum=0.1, affine=True, track_running_stats=True)
        (shift2): AvgPool2d(kernel_size=2, stride=2, padding=0)
        (conv2): Conv2d(528, 88, kernel_size=(1, 1), stride=(1, 1), bias=False)
        (bn2): BatchNorm2d(88, eps=1e-05, momentum=0.1, affine=True, track_running_stats=True)
      )
    )
    (feblock2): FEBlock4n2s(
      (resibssl_1): ResIBSSL(
        (conv1): Conv2d(11, 66, kernel_size=(1, 1), stride=(1, 1), bias=False)
        (bn1): BatchNorm2d(66, eps=1e-05, momentum=0.1, affine=True, track_running_stats=True)
        (shift2): SSL2d()
        (conv2): Conv2d(66, 11, kernel_size=(1, 1), stride=(1, 1), bias=False)
        (bn2): BatchNorm2d(11, eps=1e-05, momentum=0.1, affine=True, track_running_stats=True)
      )
      (resibssl_2): ResIBSSL(
        (conv1): Conv2d(22, 132, kernel_size=(1, 1), stride=(1, 1), bias=False)
        (bn1): BatchNorm2d(132, eps=1e-05, momentum=0.1, affine=True, track_running_stats=True)
        (shift2): SSL2d()
        (conv2): Conv2d(132, 22, kernel_size=(1, 1), stride=(1, 1), bias=False)
        (bn2): BatchNorm2d(22, eps=1e-05, momentum=0.1, affine=True, track_running_stats=True)
      )
      (resibssl_3): ResIBSSL(
        (conv1): Conv2d(44, 264, kernel_size=(1, 1), stride=(1, 1), bias=False)
        (bn1): BatchNorm2d(264, eps=1e-05, momentum=0.1, affine=True, track_running_stats=True)
        (shift2): SSL2d()
        (conv2): Conv2d(264, 44, kernel_size=(1, 1), stride=(1, 1), bias=False)
        (bn2): BatchNorm2d(44, eps=1e-05, momentum=0.1, affine=True, track_running_stats=True)
      )
      (ibpool): IBPool(
        (conv1): Conv2d(88, 1056, kernel_size=(1, 1), stride=(1, 1), bias=False)
        (bn1): BatchNorm2d(1056, eps=1e-05, momentum=0.1, affine=True, track_running_stats=True)
        (shift2): AvgPool2d(kernel_size=2, stride=2, padding=0)
        (conv2): Conv2d(1056, 176, kernel_size=(1, 1), stride=(1, 1), bias=False)
        (bn2): BatchNorm2d(176, eps=1e-05, momentum=0.1, affine=True, track_running_stats=True)
      )
    )
    (feblock3): FEBlock4n1s(
      (resibssl_1): ResIBSSL(
        (conv1): Conv2d(22, 132, kernel_size=(1, 1), stride=(1, 1), bias=False)
        (bn1): BatchNorm2d(132, eps=1e-05, momentum=0.1, affine=True, track_running_stats=True)
        (shift2): SSL2d()
        (conv2): Conv2d(132, 22, kernel_size=(1, 1), stride=(1, 1), bias=False)
        (bn2): BatchNorm2d(22, eps=1e-05, momentum=0.1, affine=True, track_running_stats=True)
      )
      (resibssl_2): ResIBSSL(
        (conv1): Conv2d(44, 264, kernel_size=(1, 1), stride=(1, 1), bias=False)
        (bn1): BatchNorm2d(264, eps=1e-05, momentum=0.1, affine=True, track_running_stats=True)
        (shift2): SSL2d()
        (conv2): Conv2d(264, 44, kernel_size=(1, 1), stride=(1, 1), bias=False)
        (bn2): BatchNorm2d(44, eps=1e-05, momentum=0.1, affine=True, track_running_stats=True)
      )
      (resibssl_3): ResIBSSL(
        (conv1): Conv2d(88, 528, kernel_size=(1, 1), stride=(1, 1), bias=False)
        (bn1): BatchNorm2d(528, eps=1e-05, momentum=0.1, affine=True, track_running_stats=True)
        (shift2): SSL2d()
        (conv2): Conv2d(528, 88, kernel_size=(1, 1), stride=(1, 1), bias=False)
        (bn2): BatchNorm2d(88, eps=1e-05, momentum=0.1, affine=True, track_running_stats=True)
      )
      (ibssl): IBSSL(
        (conv1): Conv2d(176, 1056, kernel_size=(1, 1), stride=(1, 1), bias=False)
        (bn1): BatchNorm2d(1056, eps=1e-05, momentum=0.1, affine=True, track_running_stats=True)
        (shift2): SSL2d()
        (conv2): Conv2d(1056, 176, kernel_size=(1, 1), stride=(1, 1), bias=False)
        (bn2): BatchNorm2d(176, eps=1e-05, momentum=0.1, affine=True, track_running_stats=True)
      )
    )
    (feblock4): FEBlock4n2s(
      (resibssl_1): ResIBSSL(
        (conv1): Conv2d(22, 132, kernel_size=(1, 1), stride=(1, 1), bias=False)
        (bn1): BatchNorm2d(132, eps=1e-05, momentum=0.1, affine=True, track_running_stats=True)
        (shift2): SSL2d()
        (conv2): Conv2d(132, 22, kernel_size=(1, 1), stride=(1, 1), bias=False)
        (bn2): BatchNorm2d(22, eps=1e-05, momentum=0.1, affine=True, track_running_stats=True)
      )
      (resibssl_2): ResIBSSL(
        (conv1): Conv2d(44, 264, kernel_size=(1, 1), stride=(1, 1), bias=False)
        (bn1): BatchNorm2d(264, eps=1e-05, momentum=0.1, affine=True, track_running_stats=True)
        (shift2): SSL2d()
        (conv2): Conv2d(264, 44, kernel_size=(1, 1), stride=(1, 1), bias=False)
        (bn2): BatchNorm2d(44, eps=1e-05, momentum=0.1, affine=True, track_running_stats=True)
      )
      (resibssl_3): ResIBSSL(
        (conv1): Conv2d(88, 528, kernel_size=(1, 1), stride=(1, 1), bias=False)
        (bn1): BatchNorm2d(528, eps=1e-05, momentum=0.1, affine=True, track_running_stats=True)
        (shift2): SSL2d()
        (conv2): Conv2d(528, 88, kernel_size=(1, 1), stride=(1, 1), bias=False)
        (bn2): BatchNorm2d(88, eps=1e-05, momentum=0.1, affine=True, track_running_stats=True)
      )
      (ibpool): IBPool(
        (conv1): Conv2d(176, 2112, kernel_size=(1, 1), stride=(1, 1), bias=False)
        (bn1): BatchNorm2d(2112, eps=1e-05, momentum=0.1, affine=True, track_running_stats=True)
        (shift2): AvgPool2d(kernel_size=2, stride=2, padding=0)
        (conv2): Conv2d(2112, 352, kernel_size=(1, 1), stride=(1, 1), bias=False)
        (bn2): BatchNorm2d(352, eps=1e-05, momentum=0.1, affine=True, track_running_stats=True)
      )
    )
    (feblock5): FEBlock3n1s(
      (resibssl_1): ResIBSSL(
        (conv1): Conv2d(88, 528, kernel_size=(1, 1), stride=(1, 1), bias=False)
        (bn1): BatchNorm2d(528, eps=1e-05, momentum=0.1, affine=True, track_running_stats=True)
        (shift2): SSL2d()
        (conv2): Conv2d(528, 88, kernel_size=(1, 1), stride=(1, 1), bias=False)
        (bn2): BatchNorm2d(88, eps=1e-05, momentum=0.1, affine=True, track_running_stats=True)
      )
      (resibssl_2): ResIBSSL(
        (conv1): Conv2d(176, 1056, kernel_size=(1, 1), stride=(1, 1), bias=False)
        (bn1): BatchNorm2d(1056, eps=1e-05, momentum=0.1, affine=True, track_running_stats=True)
        (shift2): SSL2d()
        (conv2): Conv2d(1056, 176, kernel_size=(1, 1), stride=(1, 1), bias=False)
        (bn2): BatchNorm2d(176, eps=1e-05, momentum=0.1, affine=True, track_running_stats=True)
      )
      (ibssl): IBSSL(
        (conv1): Conv2d(352, 2112, kernel_size=(1, 1), stride=(1, 1), bias=False)
        (bn1): BatchNorm2d(2112, eps=1e-05, momentum=0.1, affine=True, track_running_stats=True)
        (shift2): SSL2d()
        (conv2): Conv2d(2112, 352, kernel_size=(1, 1), stride=(1, 1), bias=False)
        (bn2): BatchNorm2d(352, eps=1e-05, momentum=0.1, affine=True, track_running_stats=True)
      )
    )
    (conv2): Conv2d(352, 1932, kernel_size=(1, 1), stride=(1, 1), bias=False)
    (bn2): BatchNorm2d(1932, eps=1e-05, momentum=0.1, affine=True, track_running_stats=True)
    (gap): AdaptiveAvgPool2d(output_size=(1, 1))
    (dropout): Dropout(p=0.2, inplace=False)
    (fc): Conv2d(1932, 1000, kernel_size=(1, 1), stride=(1, 1))
  )
)
[2022-06-14 13:32:02,775] Epoch: 0
[2022-06-14 13:43:13,366] Train: Loss: 5.624 | Acc: 5.652 (72411/1281167) | Lr: 0.6
[2022-06-14 13:43:58,082] Test: Loss: 5.094 | Acc: 9.416 (4708/50000)
[2022-06-14 13:43:58,082] Saving..
[2022-06-14 13:43:58,194] * Saved checkpoint to ./results/14133147/FENet_imagenet.t7
[2022-06-14 13:43:58,194] Epoch: 1
[2022-06-14 13:54:33,611] Train: Loss: 4.000 | Acc: 21.036 (269504/1281167) | Lr: 0.5999935746063304
…
