…
t=False, batch_size=1024, cutout=False, data_dir='/dataset/public/ImageNetOrigin/', epoch=480, lr=0.6, nesterov=True, reduction=1.0, results_dir='./results/', resume='/data1/2021code/step2/FENet/results/04133134/FENet_imagenet.t7')
[2021-12-06 12:11:58,842] ==> Preparing data..
[2021-12-06 12:12:03,803] Training / Testing data number: 50000 / 1281167
[2021-12-06 12:12:03,803] Using path: ./results/06121158/
[2021-12-06 12:12:03,803] ==> Resuming from checkpoint.. /data1/2021code/step2/FENet/results/04133134/FENet_imagenet.t7
[2021-12-06 12:12:06,192] DataParallel(
  (module): FENet(
    (conv1): Conv2d(3, 16, kernel_size=(3, 3), stride=(2, 2), padding=(1, 1), bias=False)
    (bn1): BatchNorm2d(16, eps=1e-05, momentum=0.1, affine=True, track_running_stats=True)
    (ibssl): IBSSL(
      (conv1): Conv2d(16, 64, kernel_size=(1, 1), stride=(1, 1), bias=False)
      (bn1): BatchNorm2d(64, eps=1e-05, momentum=0.1, affine=True, track_running_stats=True)
      (shift2): SSL2d()
      (conv2): Conv2d(64, 16, kernel_size=(1, 1), stride=(1, 1), bias=False)
      (bn2): BatchNorm2d(16, eps=1e-05, momentum=0.1, affine=True, track_running_stats=True)
    )
    (ibpool): IBPool(
      (conv1): Conv2d(16, 160, kernel_size=(1, 1), stride=(1, 1), bias=False)
      (bn1): BatchNorm2d(160, eps=1e-05, momentum=0.1, affine=True, track_running_stats=True)
      (shift2): AvgPool2d(kernel_size=2, stride=2, padding=0)
      (conv2): Conv2d(160, 32, kernel_size=(1, 1), stride=(1, 1), bias=False)
      (bn2): BatchNorm2d(32, eps=1e-05, momentum=0.1, affine=True, track_running_stats=True)
    )
    (feblock1): FEBlock3n2s(
      (resibssl_1): ResIBSSL(
        (conv1): Conv2d(8, 48, kernel_size=(1, 1), stride=(1, 1), bias=False)
        (bn1): BatchNorm2d(48, eps=1e-05, momentum=0.1, affine=True, track_running_stats=True)
        (shift2): SSL2d()
        (conv2): Conv2d(48, 8, kernel_size=(1, 1), stride=(1, 1), bias=False)
        (bn2): BatchNorm2d(8, eps=1e-05, momentum=0.1, affine=True, track_running_stats=True)
      )
      (resibssl_2): ResIBSSL(
        (conv1): Conv2d(16, 96, kernel_size=(1, 1), stride=(1, 1), bias=False)
        (bn1): BatchNorm2d(96, eps=1e-05, momentum=0.1, affine=True, track_running_stats=True)
        (shift2): SSL2d()
        (conv2): Conv2d(96, 16, kernel_size=(1, 1), stride=(1, 1), bias=False)
        (bn2): BatchNorm2d(16, eps=1e-05, momentum=0.1, affine=True, track_running_stats=True)
      )
      (ibpool): IBPool(
        (conv1): Conv2d(32, 384, kernel_size=(1, 1), stride=(1, 1), bias=False)
        (bn1): BatchNorm2d(384, eps=1e-05, momentum=0.1, affine=True, track_running_stats=True)
        (shift2): AvgPool2d(kernel_size=2, stride=2, padding=0)
        (conv2): Conv2d(384, 64, kernel_size=(1, 1), stride=(1, 1), bias=False)
        (bn2): BatchNorm2d(64, eps=1e-05, momentum=0.1, affine=True, track_running_stats=True)
      )
    )
    (feblock2): FEBlock4n2s(
      (resibssl_1): ResIBSSL(
        (conv1): Conv2d(8, 48, kernel_size=(1, 1), stride=(1, 1), bias=False)
        (bn1): BatchNorm2d(48, eps=1e-05, momentum=0.1, affine=True, track_running_stats=True)
        (shift2): SSL2d()
        (conv2): Conv2d(48, 8, kernel_size=(1, 1), stride=(1, 1), bias=False)
        (bn2): BatchNorm2d(8, eps=1e-05, momentum=0.1, affine=True, track_running_stats=True)
      )
      (resibssl_2): ResIBSSL(
        (conv1): Conv2d(16, 96, kernel_size=(1, 1), stride=(1, 1), bias=False)
        (bn1): BatchNorm2d(96, eps=1e-05, momentum=0.1, affine=True, track_running_stats=True)
        (shift2): SSL2d()
        (conv2): Conv2d(96, 16, kernel_size=(1, 1), stride=(1, 1), bias=False)
        (bn2): BatchNorm2d(16, eps=1e-05, momentum=0.1, affine=True, track_running_stats=True)
      )
      (resibssl_3): ResIBSSL(
        (conv1): Conv2d(32, 192, kernel_size=(1, 1), stride=(1, 1), bias=False)
        (bn1): BatchNorm2d(192, eps=1e-05, momentum=0.1, affine=True, track_running_stats=True)
        (shift2): SSL2d()
        (conv2): Conv2d(192, 32, kernel_size=(1, 1), stride=(1, 1), bias=False)
        (bn2): BatchNorm2d(32, eps=1e-05, momentum=0.1, affine=True, track_running_stats=True)
      )
      (ibpool): IBPool(
        (conv1): Conv2d(64, 768, kernel_size=(1, 1), stride=(1, 1), bias=False)
        (bn1): BatchNorm2d(768, eps=1e-05, momentum=0.1, affine=True, track_running_stats=True)
        (shift2): AvgPool2d(kernel_size=2, stride=2, padding=0)
        (conv2): Conv2d(768, 128, kernel_size=(1, 1), stride=(1, 1), bias=False)
        (bn2): BatchNorm2d(128, eps=1e-05, momentum=0.1, affine=True, track_running_stats=True)
      )
    )
    (feblock3): FEBlock4n1s(
      (resibssl_1): ResIBSSL(
        (conv1): Conv2d(16, 96, kernel_size=(1, 1), stride=(1, 1), bias=False)
        (bn1): BatchNorm2d(96, eps=1e-05, momentum=0.1, affine=True, track_running_stats=True)
        (shift2): SSL2d()
        (conv2): Conv2d(96, 16, kernel_size=(1, 1), stride=(1, 1), bias=False)
        (bn2): BatchNorm2d(16, eps=1e-05, momentum=0.1, affine=True, track_running_stats=True)
      )
      (resibssl_2): ResIBSSL(
        (conv1): Conv2d(32, 192, kernel_size=(1, 1), stride=(1, 1), bias=False)
        (bn1): BatchNorm2d(192, eps=1e-05, momentum=0.1, affine=True, track_running_stats=True)
        (shift2): SSL2d()
        (conv2): Conv2d(192, 32, kernel_size=(1, 1), stride=(1, 1), bias=False)
        (bn2): BatchNorm2d(32, eps=1e-05, momentum=0.1, affine=True, track_running_stats=True)
      )
      (resibssl_3): ResIBSSL(
        (conv1): Conv2d(64, 384, kernel_size=(1, 1), stride=(1, 1), bias=False)
        (bn1): BatchNorm2d(384, eps=1e-05, momentum=0.1, affine=True, track_running_stats=True)
        (shift2): SSL2d()
        (conv2): Conv2d(384, 64, kernel_size=(1, 1), stride=(1, 1), bias=False)
        (bn2): BatchNorm2d(64, eps=1e-05, momentum=0.1, affine=True, track_running_stats=True)
      )
      (ibssl): IBSSL(
        (conv1): Conv2d(128, 768, kernel_size=(1, 1), stride=(1, 1), bias=False)
        (bn1): BatchNorm2d(768, eps=1e-05, momentum=0.1, affine=True, track_running_stats=True)
        (shift2): SSL2d()
        (conv2): Conv2d(768, 128, kernel_size=(1, 1), stride=(1, 1), bias=False)
        (bn2): BatchNorm2d(128, eps=1e-05, momentum=0.1, affine=True, track_running_stats=True)
      )
    )
    (feblock4): FEBlock4n2s(
      (resibssl_1): ResIBSSL(
        (conv1): Conv2d(16, 96, kernel_size=(1, 1), stride=(1, 1), bias=False)
        (bn1): BatchNorm2d(96, eps=1e-05, momentum=0.1, affine=True, track_running_stats=True)
        (shift2): SSL2d()
        (conv2): Conv2d(96, 16, kernel_size=(1, 1), stride=(1, 1), bias=False)
        (bn2): BatchNorm2d(16, eps=1e-05, momentum=0.1, affine=True, track_running_stats=True)
      )
      (resibssl_2): ResIBSSL(
        (conv1): Conv2d(32, 192, kernel_size=(1, 1), stride=(1, 1), bias=False)
        (bn1): BatchNorm2d(192, eps=1e-05, momentum=0.1, affine=True, track_running_stats=True)
        (shift2): SSL2d()
        (conv2): Conv2d(192, 32, kernel_size=(1, 1), stride=(1, 1), bias=False)
        (bn2): BatchNorm2d(32, eps=1e-05, momentum=0.1, affine=True, track_running_stats=True)
      )
      (resibssl_3): ResIBSSL(
        (conv1): Conv2d(64, 384, kernel_size=(1, 1), stride=(1, 1), bias=False)
        (bn1): BatchNorm2d(384, eps=1e-05, momentum=0.1, affine=True, track_running_stats=True)
        (shift2): SSL2d()
        (conv2): Conv2d(384, 64, kernel_size=(1, 1), stride=(1, 1), bias=False)
        (bn2): BatchNorm2d(64, eps=1e-05, momentum=0.1, affine=True, track_running_stats=True)
      )
      (ibpool): IBPool(
        (conv1): Conv2d(128, 1536, kernel_size=(1, 1), stride=(1, 1), bias=False)
        (bn1): BatchNorm2d(1536, eps=1e-05, momentum=0.1, affine=True, track_running_stats=True)
        (shift2): AvgPool2d(kernel_size=2, stride=2, padding=0)
        (conv2): Conv2d(1536, 256, kernel_size=(1, 1), stride=(1, 1), bias=False)
        (bn2): BatchNorm2d(256, eps=1e-05, momentum=0.1, affine=True, track_running_stats=True)
      )
    )
    (feblock5): FEBlock3n1s(
      (resibssl_1): ResIBSSL(
        (conv1): Conv2d(64, 384, kernel_size=(1, 1), stride=(1, 1), bias=False)
        (bn1): BatchNorm2d(384, eps=1e-05, momentum=0.1, affine=True, track_running_stats=True)
        (shift2): SSL2d()
        (conv2): Conv2d(384, 64, kernel_size=(1, 1), stride=(1, 1), bias=False)
        (bn2): BatchNorm2d(64, eps=1e-05, momentum=0.1, affine=True, track_running_stats=True)
      )
      (resibssl_2): ResIBSSL(
        (conv1): Conv2d(128, 768, kernel_size=(1, 1), stride=(1, 1), bias=False)
        (bn1): BatchNorm2d(768, eps=1e-05, momentum=0.1, affine=True, track_running_stats=True)
        (shift2): SSL2d()
        (conv2): Conv2d(768, 128, kernel_size=(1, 1), stride=(1, 1), bias=False)
        (bn2): BatchNorm2d(128, eps=1e-05, momentum=0.1, affine=True, track_running_stats=True)
      )
      (ibssl): IBSSL(
        (conv1): Conv2d(256, 1536, kernel_size=(1, 1), stride=(1, 1), bias=False)
        (bn1): BatchNorm2d(1536, eps=1e-05, momentum=0.1, affine=True, track_running_stats=True)
        (shift2): SSL2d()
        (conv2): Conv2d(1536, 256, kernel_size=(1, 1), stride=(1, 1), bias=False)
        (bn2): BatchNorm2d(256, eps=1e-05, momentum=0.1, affine=True, track_running_stats=True)
      )
    )
    (conv2): Conv2d(256, 1380, kernel_size=(1, 1), stride=(1, 1), bias=False)
    (bn2): BatchNorm2d(1380, eps=1e-05, momentum=0.1, affine=True, track_running_stats=True)
    (gap): AdaptiveAvgPool2d(output_size=(1, 1))
    (dropout): Dropout(p=0.2, inplace=False)
    (fc): Conv2d(1380, 1000, kernel_size=(1, 1), stride=(1, 1))
  )
)
[2021-12-06 12:12:06,202] Epoch: 240
[2021-12-06 12:22:36,134] Train: Loss: 1.942 | Acc: 55.592 (712225/1281167) | Lr: 0.30000499999999974
[2021-12-06 12:23:18,439] Test: Loss: 1.881 | Acc: 55.736 (27868/50000)
[2021-12-06 12:23:18,439] Epoch: 241
[2021-12-06 12:33:28,467] Train: Loss: 1.937 | Acc: 55.701 (713626/1281167) | Lr: 0.29804155133448396
…
