[2022-06-14 09:10:54,700] Namespace(auto_augment=True, batch_size=1024, data_dir='/dataset/public/ImageNetOrigin/', epoch=480, lr=0.6, mode='Train', nesterov=True, reduction=1.0, results_dir='./results/', resume=None)
[2022-06-14 09:10:54,700] ==> Preparing data..
[2022-06-14 09:11:01,410] Training / Testing data number: 50000 / 1281167
[2022-06-14 09:11:01,411] Using path: ./results/14091054/
[2022-06-14 09:11:01,411] ==> Building model..
[2022-06-14 09:11:04,586] DataParallel(
  (module): FENet(
    (conv1): Conv2d(3, 16, kernel_size=(3, 3), stride=(2, 2), padding=(1, 1), bias=False)
    (bn1): BatchNorm2d(16, eps=1e-05, momentum=0.1, affine=True, track_running_stats=True)
    (ibssl): IBSSL(
      (conv1): Conv2d(16, 64, kernel_size=(1, 1), stride=(1, 1), bias=False)
      (bn1): BatchNorm2d(64, eps=1e-05, momentum=0.1, affine=True, track_running_stats=True)
      (shift2): SSL2d()
      (conv2): Conv2d(64, 16, kernel_size=(1, 1), stride=(1, 1), bias=False)
      (bn2): BatchNorm2d(16, eps=1e-05, momentum=0.1, affine=True, track_running_stats=True)
    )
    (ibpool): IBPool(
      (conv1): Conv2d(16, 160, kernel_size=(1, 1), stride=(1, 1), bias=False)
      (bn1): BatchNorm2d(160, eps=1e-05, momentum=0.1, affine=True, track_running_stats=True)
      (shift2): AvgPool2d(kernel_size=2, stride=2, padding=0)
      (conv2): Conv2d(160, 32, kernel_size=(1, 1), stride=(1, 1), bias=False)
      (bn2): BatchNorm2d(32, eps=1e-05, momentum=0.1, affine=True, track_running_stats=True)
    )
    (feblock1): FEBlock3n2s(
      (resibssl_1): ResIBSSL(
        (conv1): Conv2d(8, 48, kernel_size=(1, 1), stride=(1, 1), bias=False)
        (bn1): BatchNorm2d(48, eps=1e-05, momentum=0.1, affine=True, track_running_stats=True)
        (shift2): SSL2d()
        (conv2): Conv2d(48, 8, kernel_size=(1, 1), stride=(1, 1), bias=False)
        (bn2): BatchNorm2d(8, eps=1e-05, momentum=0.1, affine=True, track_running_stats=True)
      )
      (resibssl_2): ResIBSSL(
        (conv1): Conv2d(16, 96, kernel_size=(1, 1), stride=(1, 1), bias=False)
        (bn1): BatchNorm2d(96, eps=1e-05, momentum=0.1, affine=True, track_running_stats=True)
        (shift2): SSL2d()
        (conv2): Conv2d(96, 16, kernel_size=(1, 1), stride=(1, 1), bias=False)
        (bn2): BatchNorm2d(16, eps=1e-05, momentum=0.1, affine=True, track_running_stats=True)
      )
      (ibpool): IBPool(
        (conv1): Conv2d(32, 384, kernel_size=(1, 1), stride=(1, 1), bias=False)
        (bn1): BatchNorm2d(384, eps=1e-05, momentum=0.1, affine=True, track_running_stats=True)
        (shift2): AvgPool2d(kernel_size=2, stride=2, padding=0)
        (conv2): Conv2d(384, 64, kernel_size=(1, 1), stride=(1, 1), bias=False)
        (bn2): BatchNorm2d(64, eps=1e-05, momentum=0.1, affine=True, track_running_stats=True)
      )
    )
    (feblock2): FEBlock4n2s(
      (resibssl_1): ResIBSSL(
        (conv1): Conv2d(8, 48, kernel_size=(1, 1), stride=(1, 1), bias=False)
        (bn1): BatchNorm2d(48, eps=1e-05, momentum=0.1, affine=True, track_running_stats=True)
        (shift2): SSL2d()
        (conv2): Conv2d(48, 8, kernel_size=(1, 1), stride=(1, 1), bias=False)
        (bn2): BatchNorm2d(8, eps=1e-05, momentum=0.1, affine=True, track_running_stats=True)
      )
      (resibssl_2): ResIBSSL(
        (conv1): Conv2d(16, 96, kernel_size=(1, 1), stride=(1, 1), bias=False)
        (bn1): BatchNorm2d(96, eps=1e-05, momentum=0.1, affine=True, track_running_stats=True)
        (shift2): SSL2d()
        (conv2): Conv2d(96, 16, kernel_size=(1, 1), stride=(1, 1), bias=False)
        (bn2): BatchNorm2d(16, eps=1e-05, momentum=0.1, affine=True, track_running_stats=True)
      )
      (resibssl_3): ResIBSSL(
        (conv1): Conv2d(32, 192, kernel_size=(1, 1), stride=(1, 1), bias=False)
        (bn1): BatchNorm2d(192, eps=1e-05, momentum=0.1, affine=True, track_running_stats=True)
        (shift2): SSL2d()
        (conv2): Conv2d(192, 32, kernel_size=(1, 1), stride=(1, 1), bias=False)
        (bn2): BatchNorm2d(32, eps=1e-05, momentum=0.1, affine=True, track_running_stats=True)
      )
      (ibpool): IBPool(
        (conv1): Conv2d(64, 768, kernel_size=(1, 1), stride=(1, 1), bias=False)
        (bn1): BatchNorm2d(768, eps=1e-05, momentum=0.1, affine=True, track_running_stats=True)
        (shift2): AvgPool2d(kernel_size=2, stride=2, padding=0)
        (conv2): Conv2d(768, 128, kernel_size=(1, 1), stride=(1, 1), bias=False)
        (bn2): BatchNorm2d(128, eps=1e-05, momentum=0.1, affine=True, track_running_stats=True)
      )
    )
    (feblock3): FEBlock4n1s(
      (resibssl_1): ResIBSSL(
        (conv1): Conv2d(16, 96, kernel_size=(1, 1), stride=(1, 1), bias=False)
        (bn1): BatchNorm2d(96, eps=1e-05, momentum=0.1, affine=True, track_running_stats=True)
        (shift2): SSL2d()
        (conv2): Conv2d(96, 16, kernel_size=(1, 1), stride=(1, 1), bias=False)
        (bn2): BatchNorm2d(16, eps=1e-05, momentum=0.1, affine=True, track_running_stats=True)
      )
      (resibssl_2): ResIBSSL(
        (conv1): Conv2d(32, 192, kernel_size=(1, 1), stride=(1, 1), bias=False)
        (bn1): BatchNorm2d(192, eps=1e-05, momentum=0.1, affine=True, track_running_stats=True)
        (shift2): SSL2d()
        (conv2): Conv2d(192, 32, kernel_size=(1, 1), stride=(1, 1), bias=False)
        (bn2): BatchNorm2d(32, eps=1e-05, momentum=0.1, affine=True, track_running_stats=True)
      )
      (resibssl_3): ResIBSSL(
        (conv1): Conv2d(64, 384, kernel_size=(1, 1), stride=(1, 1), bias=False)
        (bn1): BatchNorm2d(384, eps=1e-05, momentum=0.1, affine=True, track_running_stats=True)
        (shift2): SSL2d()
        (conv2): Conv2d(384, 64, kernel_size=(1, 1), stride=(1, 1), bias=False)
        (bn2): BatchNorm2d(64, eps=1e-05, momentum=0.1, affine=True, track_running_stats=True)
      )
      (ibssl): IBSSL(
        (conv1): Conv2d(128, 768, kernel_size=(1, 1), stride=(1, 1), bias=False)
        (bn1): BatchNorm2d(768, eps=1e-05, momentum=0.1, affine=True, track_running_stats=True)
        (shift2): SSL2d()
        (conv2): Conv2d(768, 128, kernel_size=(1, 1), stride=(1, 1), bias=False)
        (bn2): BatchNorm2d(128, eps=1e-05, momentum=0.1, affine=True, track_running_stats=True)
      )
    )
    (feblock4): FEBlock4n2s(
      (resibssl_1): ResIBSSL(
        (conv1): Conv2d(16, 96, kernel_size=(1, 1), stride=(1, 1), bias=False)
        (bn1): BatchNorm2d(96, eps=1e-05, momentum=0.1, affine=True, track_running_stats=True)
        (shift2): SSL2d()
        (conv2): Conv2d(96, 16, kernel_size=(1, 1), stride=(1, 1), bias=False)
        (bn2): BatchNorm2d(16, eps=1e-05, momentum=0.1, affine=True, track_running_stats=True)
      )
      (resibssl_2): ResIBSSL(
        (conv1): Conv2d(32, 192, kernel_size=(1, 1), stride=(1, 1), bias=False)
        (bn1): BatchNorm2d(192, eps=1e-05, momentum=0.1, affine=True, track_running_stats=True)
        (shift2): SSL2d()
        (conv2): Conv2d(192, 32, kernel_size=(1, 1), stride=(1, 1), bias=False)
        (bn2): BatchNorm2d(32, eps=1e-05, momentum=0.1, affine=True, track_running_stats=True)
      )
      (resibssl_3): ResIBSSL(
        (conv1): Conv2d(64, 384, kernel_size=(1, 1), stride=(1, 1), bias=False)
        (bn1): BatchNorm2d(384, eps=1e-05, momentum=0.1, affine=True, track_running_stats=True)
        (shift2): SSL2d()
        (conv2): Conv2d(384, 64, kernel_size=(1, 1), stride=(1, 1), bias=False)
        (bn2): BatchNorm2d(64, eps=1e-05, momentum=0.1, affine=True, track_running_stats=True)
      )
      (ibpool): IBPool(
        (conv1): Conv2d(128, 1536, kernel_size=(1, 1), stride=(1, 1), bias=False)
        (bn1): BatchNorm2d(1536, eps=1e-05, momentum=0.1, affine=True, track_running_stats=True)
        (shift2): AvgPool2d(kernel_size=2, stride=2, padding=0)
        (conv2): Conv2d(1536, 256, kernel_size=(1, 1), stride=(1, 1), bias=False)
        (bn2): BatchNorm2d(256, eps=1e-05, momentum=0.1, affine=True, track_running_stats=True)
      )
    )
    (feblock5): FEBlock3n1s(
      (resibssl_1): ResIBSSL(
        (conv1): Conv2d(64, 384, kernel_size=(1, 1), stride=(1, 1), bias=False)
        (bn1): BatchNorm2d(384, eps=1e-05, momentum=0.1, affine=True, track_running_stats=True)
        (shift2): SSL2d()
        (conv2): Conv2d(384, 64, kernel_size=(1, 1), stride=(1, 1), bias=False)
        (bn2): BatchNorm2d(64, eps=1e-05, momentum=0.1, affine=True, track_running_stats=True)
      )
      (resibssl_2): ResIBSSL(
        (conv1): Conv2d(128, 768, kernel_size=(1, 1), stride=(1, 1), bias=False)
        (bn1): BatchNorm2d(768, eps=1e-05, momentum=0.1, affine=True, track_running_stats=True)
        (shift2): SSL2d()
        (conv2): Conv2d(768, 128, kernel_size=(1, 1), stride=(1, 1), bias=False)
        (bn2): BatchNorm2d(128, eps=1e-05, momentum=0.1, affine=True, track_running_stats=True)
      )
      (ibssl): IBSSL(
        (conv1): Conv2d(256, 1536, kernel_size=(1, 1), stride=(1, 1), bias=False)
        (bn1): BatchNorm2d(1536, eps=1e-05, momentum=0.1, affine=True, track_running_stats=True)
        (shift2): SSL2d()
        (conv2): Conv2d(1536, 256, kernel_size=(1, 1), stride=(1, 1), bias=False)
        (bn2): BatchNorm2d(256, eps=1e-05, momentum=0.1, affine=True, track_running_stats=True)
      )
    )
    (conv2): Conv2d(256, 1932, kernel_size=(1, 1), stride=(1, 1), bias=False)
    (bn2): BatchNorm2d(1932, eps=1e-05, momentum=0.1, affine=True, track_running_stats=True)
    (gap): AdaptiveAvgPool2d(output_size=(1, 1))
    (dropout): Dropout(p=0.2, inplace=False)
    (fc): Conv2d(1932, 1000, kernel_size=(1, 1), stride=(1, 1))
  )
)
[2022-06-14 09:11:04,595] Epoch: 0
[2022-06-14 09:27:42,148] Train: Loss: 5.780 | Acc: 4.340 (55609/1281167) | Lr: 0.6
[2022-06-14 09:28:26,033] Test: Loss: 5.324 | Acc: 7.348 (3674/50000)
[2022-06-14 09:28:26,033] Saving..
[2022-06-14 09:28:26,133] * Saved checkpoint to ./results/14091054/FENet_imagenet.t7
[2022-06-14 09:28:26,133] Epoch: 1
[2022-06-14 09:44:57,546] Train: Loss: 4.409 | Acc: 15.950 (204351/1281167) | Lr: 0.5999935746063304
…
